data.pth (torch, 4991 bytes, 6 tensors)

l1.weight f4 [8, 54]
0	0x3e34abb4	0.17643625
1	0x3f4bad0d	0.7956093
2	0x3ee74e52	0.4517694
3	0xbe82e952	-0.25568634
4	0x3d5bb35a	0.05363784
5	0x3f0f9e53	0.5610096
6	0x3f1a4f56	0.6027731
7	0x3efb7739	0.49114397
8	0x3f28a0dc	0.6587045
9	0x3ebb94d9	0.36637
10	0xbe808112	-0.25098473
11	0xbeec104c	-0.46106184
12	0x3f87ea42	1.0618365
13	0xbe38a791	-0.18032672
14	0x3f3b71e1	0.7322064
15	0xbf1fccbc	-0.62421775
16	0xbe2b1d84	-0.16710478
17	0x3f1898df	0.5960826
18	0x3f229bd3	0.6351902
19	0xbefe8515	-0.4971091
20	0x3ed1a465	0.40945736
21	0xbedf3338	-0.43593764
22	0xbee941b6	-0.45557946
23	0xbf087889	-0.5330892
24	0x3ec98902	0.3936234
25	0xbe60bfc6	-0.21948156
26	0x3f7db236	0.99100053
27	0x3f53fb3e	0.8280524
28	0x3f1c0029	0.60937744
29	0x3ef28bd3	0.47372302
30	0x3e151565	0.14558943
31	0xbe76f8fe	-0.2411842
32	0x3cb8eb87	0.022573246
33	0x3f2ab8f6	0.6668848
34	0x3f5bc54b	0.8584792
35	0xbf0a894c	-0.5411575
36	0x3f3db36c	0.741019
37	0x3f3624b8	0.7114978
38	0x3f080ae6	0.5314163
39	0x3f320006	0.69531286
40	0x3d801e3a	0.06255765
41	0x3f564953	0.83705634
42	0xbe554acf	-0.20829318
43	0x3f1ade5b	0.6049554
44	0x3ec39f9b	0.38207707
45	0x3f816643	1.0109333
46	0x3edd5baf	0.43234012
47	0x3e96001b	0.29296955
48	0x3e498c46	0.19682416
49	0x3f8be4c7	1.0929192
50	0xbf1be25d	-0.6089228
51	0x3f4240c1	0.75880057
52	0x3f0ec993	0.5577633
53	0x3ebccd43	0.36875352
54	0x3dc84ae0	0.09779906
55	0x3f546500	0.82966614
56	0xbe90c3b6	-0.28274316
57	0x3e49e79f	0.19717263
58	0x3e424a09	0.18973555
59	0xbf0fe681	-0.56211096
60	0xbe7cf9e6	-0.24704704
61	0xbf015287	-0.5051655
62	0xbe97a748	-0.29619813
63	0xbee7f358	-0.45302844
64	0x3ecd10cd	0.4005188
65	0x3f66c5f9	0.9014583
66	0x3b2dd2e5	0.0026523408
67	0x3f345342	0.7043954
68	0x3efe6fd8	0.49694705
69	0x3f203dc0	0.62594223
70	0x3e8cb523	0.27481946
71	0xbf0e9ff7	-0.55712837
72	0xbe60087e	-0.2187824
73	0x3ef102d7	0.4707248
74	0xbcaf0b47	-0.021367682
75	0x3f09038a	0.53521025
76	0x3ef8006e	0.48437828
77	0x3f65aa81	0.89713293
78	0x3ec40d62	0.3829146
79	0x3e9b95ef	0.30387828
80	0xbe66657c	-0.2249965
81	0x3f54fd5b	0.8319909
82	0xbe9ef749	-0.3104804
83	0x3f3cd499	0.737619
84	0xbec9e67b	-0.39433655
85	0x3f264faa	0.6496531
86	0xbdc6f54b	-0.09714755
87	0xbe983b9f	-0.29732987
88	0x3f67e170	0.90578365
89	0x3f4950ed	0.7863911
90	0xbe26a238	-0.16272819
91	0xbef173c4	-0.47158635
92	0xbdbed5b8	-0.09318107
93	0xbea8b2e7	-0.32948992
94	0xbe2afc3a	-0.1669778
95	0xbe8de94e	-0.2771706
96	0x3f20d4ba	0.62824595
97	0x3ef14b5a	0.471278
98	0x3f135bf9	0.57562214
99	0x3f3ec75e	0.7452296
100	0xbe8b4412	-0.2720037
101	0xbd4b70d8	-0.049668163
102	0x3e422225	0.18958338
103	0xbe61fdc9	-0.22069468
104	0x3f19ba49	0.60049874
105	0xbe01060f	-0.12599967
106	0xbe942dab	-0.28941092
107	0x3a9c8d42	0.0011943954
108	0xbb101c00	-0.0021989346
109	0x3d82afea	0.06381209
110	0xbe03d77b	-0.12875168
111	0xbd7b32d4	-0.06132777
112	0xbe070a71	-0.13187577
113	0x3b3d8ec0	0.0028924197
114	0x3daaa0e6	0.0833147
115	0xbd8f1615	-0.06986634
116	0x3da48ed8	0.08035058
117	0x3d38d8f3	0.045128774
118	0xbdc13c7c	-0.094353646
119	0xbcbf4620	-0.023348868
120	0x3dc23c3e	0.094841465
121	0xbdb192aa	-0.08670552
122	0xbdde5968	-0.10856897
123	0x3dd6899e	0.10475467
124	0x3d699b34	0.05703278
125	0xbd5326a0	-0.051550508
126	0x3acbff80	0.0015563816
127	0xbcce44f0	-0.025179356
128	0xbd121db8	-0.035672873
129	0xbbca6e80	-0.0061777234
130	0xbdc64abc	-0.09682223
131	0x3d87b3da	0.06626101
132	0xbe1ff5c0	-0.1562109
133	0x3d59356c	0.053029463
134	0x3d29353c	0.041310534
135	0xbdb04632	-0.08607139
136	0x3d941208	0.07230002
137	0xbdf7fb24	-0.12108448
138	0x3c7c8d30	0.015414521
139	0xbd4aa7b2	-0.049476333
140	0xbdb1338a	-0.086524084
141	0xbd4f8c5c	-0.050670967
142	0x3d871532	0.065958396
143	0xbd46d4c2	-0.048542745
144	0x3d9ecb04	0.07753566
145	0x3d5c43f4	0.053775743
146	0x3dcb32b5	0.09921781
147	0x3d70ff55	0.058837254
148	0xbd8f4b52	-0.06996788
149	0x3dd92486	0.106026694
150	0x3dab1dea	0.08355315
151	0xbd0eca32	-0.034860797
152	0x3da08551	0.07837928
153	0xbc89f3e4	-0.016839929
154	0xbdf9e560	-0.12201953
155	0xbb5ce240	-0.0033704191
156	0x3d459734	0.0482399
157	0xbdfe6b18	-0.1242277
158	0x3d182f98	0.037154764
159	0xbd59f290	-0.05320984
160	0x3d334c4c	0.043773934
161	0xbd536971	-0.05161423
162	0x3f5d1e75	0.863746
163	0xbdb9a098	-0.09063834
164	0x3eadf38e	0.3397488
165	0xbdd339ff	-0.10313796
166	0x3d9b8996	0.07594602
167	0xbe9899e2	-0.29804903
168	0x3e41d652	0.18929413
169	0x3e32c1fc	0.17456812
170	0x3e60462c	0.21901768
171	0x3d9e76d3	0.07737508
172	0xbd260679	-0.040533517
173	0xbeb3fef2	-0.35155445
174	0x3e6a86d1	0.22902991
175	0xbdb5c867	-0.08876114
176	0xbd3edbb2	-0.046596237
177	0xbe0abc68	-0.13548434
178	0xbda44476	-0.080208704
179	0xbea13513	-0.31485805
180	0x3ca4b38e	0.02010515
181	0xbe2ce911	-0.16885783
182	0x3f29a9c5	0.6627467
183	0xbe264683	-0.16237836
184	0xbe5312af	-0.20612596
185	0xbeeb35c2	-0.4593945
186	0x3e0af48e	0.13569853
187	0xbe41f11d	-0.18939634
188	0x3ea22a91	0.316731
189	0xbec4045f	-0.38284585
190	0x3ec5fe0c	0.38670385
191	0xbee92fea	-0.45544368
192	0xbea8826f	-0.32912013
193	0xbd3ee798	-0.046607584
194	0x3f0b6c9d	0.54462606
195	0x3e53b402	0.20674136
196	0xbe2a35ce	-0.16622087
197	0xbe3ce7bc	-0.18447775
198	0x3e6ed1be	0.23322198
199	0x3c93baf9	0.018033491
200	0x3e1cebac	0.15324277
201	0x3e4f3492	0.20234898
202	0xbdc56bb0	-0.096396804
203	0xbde90bc0	-0.11379194
204	0xbd065639	-0.032797072
205	0xbdd7066f	-0.10499274
206	0x3e268485	0.1626149
207	0xbe14c97f	-0.1452999
208	0x3f965595	1.1744868
209	0x3f2024a7	0.6255593
210	0x3da92161	0.0825832
211	0x3e4fa392	0.20277241
212	0xbe21de38	-0.15807426
213	0x3e352540	0.17689991
214	0x3d7e4aa6	0.06208291
215	0x3eb7d3c6	0.35903758
216	0xbe40a9f7	-0.18814836
217	0xbed5e566	-0.4177658
218	0xbf2cdb6a	-0.675223
219	0x3cc25dba	0.023726333
220	0x3cfe6d33	0.03105793
221	0x3f8c209a	1.0947449
222	0xbd75531f	-0.059893724
223	0xbeb265dc	-0.34843338
224	0xbf171d3c	-0.59028983
225	0xbedaaaf0	-0.4270854
226	0x3dcd68f3	0.10029783
227	0xbe804cd5	-0.25058618
228	0xbd898ff8	-0.06716913
229	0xbe9978b5	-0.29974905
230	0xbe4a971d	-0.19784208
231	0xbde469a8	-0.11152965
232	0x3e68a911	0.22720744
233	0x3f949d12	1.1610434
234	0x3ea3cd88	0.31992745
235	0x3dbf35bb	0.0933642
236	0xbe212f68	-0.1574074
237	0x3e0c17ad	0.13680907
238	0x3dd52f63	0.10409429
239	0x3e27c247	0.16382705
240	0xbe8ee33d	-0.27907744
241	0x3c2fa382	0.010720136
242	0x3ee380f3	0.44434318
243	0xbea51a67	-0.32246706
244	0x3eb37f20	0.35057926
245	0xbef7b510	-0.48380327
246	0x3f4dd021	0.80395705
247	0xbe307010	-0.17230248
248	0xbdbe5f92	-0.09295572
249	0xbf0c8127	-0.5488457
250	0xbe9311bb	-0.28724465
251	0xbdd7db44	-0.105398685
252	0x3e8a6ae4	0.27034676
253	0xbf3b8e18	-0.7326369
254	0xbe2c0242	-0.16797736
255	0xbe6e008d	-0.23242398

l1.bias f4 [8]
0	0x3f47a25d	0.7798212
1	0x3f1388d5	0.57630664
2	0xbe0ea212	-0.13929012
3	0x3eede5e2	0.4646445
4	0x3f807bcd	1.0037781
5	0x3f85133b	1.0396494
6	0x3f4ef13b	0.8083684
7	0x3f436ea7	0.7634072

l2.weight f4 [8, 8]
0	0x3f04135e	0.5159205
1	0xbd0735e4	-0.03301038
2	0xbe6c723f	-0.23090456
3	0x3f092f86	0.5358814
4	0x3ffa895c	1.9573169
5	0x3fb16020	1.385746
6	0x3fbe203f	1.4853591
7	0x3f85aa66	1.0442626
8	0xba867102	-0.0010257068
9	0xbdd1309c	-0.1021435
10	0x3e075fde	0.13220164
11	0xbda78903	-0.0818043
12	0x3dd9a546	0.106272265
13	0x3dee2a95	0.11629216
14	0xbd5e612a	-0.05429188
15	0xbeba7d74	-0.36423838
16	0x3f455085	0.7707599
17	0xbf7a154b	-0.9768874
18	0x3e99d54b	0.30045542
19	0x3d34f5cb	0.04417972
20	0x3f8081fa	1.0039666
21	0x3e8c4b21	0.2740107
22	0xbf3c62cc	-0.7358825
23	0x3f4ca587	0.79940075
24	0x3f798b7f	0.9747848
25	0xbebd6f50	-0.36998987
26	0x3e73c69a	0.23806229
27	0x3faea619	1.3644439
28	0xbf44b992	-0.7684566
29	0xbddd5805	-0.10807804
30	0x3f690460	0.910223
31	0x3da0264f	0.07819807
32	0xbed079e7	-0.40718004
33	0x3f8cd81f	1.1003455
34	0x3dba6868	0.09101945
35	0xbf113701	-0.56724554
36	0xbea337c2	-0.31878477
37	0xbef8b873	-0.48578224
38	0xbf42c66b	-0.7608401
39	0xbec1fcb8	-0.37888122
40	0x3f1a84f7	0.6035914
41	0xbf7219ad	-0.9457043
42	0x3ada20a5	0.0016641809
43	0x3f608f20	0.8771839
44	0xbebb1f8e	-0.36547512
45	0xbf66fe53	-0.9023182
46	0x3f48f41c	0.7849748
47	0x3f64bed9	0.8935371
48	0x3f31dd45	0.69478256
49	0xbf71f3dd	-0.9451273
50	0x3e252cd6	0.16130385
51	0xbdd88d7f	-0.10573863
52	0xbf87b09f	-1.0600775
53	0xbf886082	-1.0654452
54	0x3f16eb36	0.58952653
55	0x3f5ab802	0.85437024
56	0x3f76ae48	0.9635968
57	0x3f6501f4	0.89456105
58	0xbe04269c	-0.12905353
59	0xbf31eb67	-0.6949982
60	0xbf45ee40	-0.77316666
61	0x3f5604a3	0.83600825
62	0xbf34cbc6	-0.70623434
63	0x3f9c5931	1.2214719

l2.bias f4 [8]
0	0x3f6e85ab	0.9317271
1	0xbe49c452	-0.19703797
2	0xbe6e75d0	-0.2328713
3	0x3dfc0bbe	0.12306927
4	0x3e77db1a	0.24204674
5	0x3e13b7b4	0.14425546
6	0xbe124730	-0.14284968
7	0x3df4365b	0.1192443

l3.weight f4 [7, 8]
0	0xbf30e9b8	-0.69106627
1	0xbe986bb3	-0.29769668
2	0xbf826deb	-1.0189794
3	0xbf724e8e	-0.94651115
4	0x3f869ffd	1.0517575
5	0xbf328096	-0.69727457
6	0xbee236ca	-0.44182426
7	0x3ead085a	0.33795434
8	0x3cee6ab1	0.029103609
9	0xbd2ceaf4	-0.042216256
10	0xbf66ca31	-0.9015227
11	0xbf2c8a7e	-0.6739882
12	0xbf9e8d0a	-1.2386792
13	0xbf7b52e3	-0.9817335
14	0xbf851c14	-1.0399194
15	0x3f7dd91e	0.9915942
16	0x3ecbafed	0.39782658
17	0xbea0a4d5	-0.31375757
18	0x3f4eb2d0	0.80741596
19	0xbffcd0ba	-1.9751198
20	0xbf48a216	-0.78372324
21	0xbfb4c73e	-1.4123304
22	0xbff3994e	-1.903116
23	0xbe1ed9b3	-0.15512733
24	0x3f75f3ae	0.9607495
25	0x3e9eae9e	0.30992597
26	0xc00eaf5b	-2.2294528
27	0xbfab19b1	-1.3367215
28	0xbf81c96b	-1.0139593
29	0xbf809680	-1.0045929
30	0xbfb56793	-1.4172233
31	0xbcbd04ee	-0.02307364
32	0x3c8dafe5	0.017295787
33	0x3e051ad1	0.12998511
34	0x3e898aa5	0.2686359
35	0xbee4faf4	-0.44722712
36	0xbf2bfdcf	-0.67184156
37	0xbc6f21c5	-0.014595454
38	0xbf297172	-0.6618873
39	0xbd2230cf	-0.03959733
40	0xbe3f0bab	-0.18656795
41	0x3df1b2f1	0.118017085
42	0xbf2617f7	-0.6488032
43	0xbdf3de1a	-0.11907597
44	0xbec979af	-0.3935065
45	0x3f037d02	0.5136262
46	0x3f79a479	0.9751659
47	0xbf6d8b86	-0.9279102
48	0x3e513b14	0.20432693
49	0xbda97e7b	-0.08276077
50	0xbf9ced55	-1.2259928
51	0x3f30d47a	0.69074214
52	0xbf0e82bb	-0.5566823
53	0x3ec8b42a	0.39199954
54	0xbfbe53ec	-1.4869361
55	0xbfc6b926	-1.5525253

l3.bias f4 [7]
0	0x3d1b4506	0.037907623
1	0xbf1788d9	-0.5919319
2	0x3db5aba6	0.0887063
3	0x3f80ab41	1.0052263
4	0xbf2ae8fb	-0.6676175
5	0xbe6b72c2	-0.22992995
6	0x3e86ec3f	0.26352116
